…
   History file: ../conus2_ml/models/OUTPUT/MODEL/history_configure.txt_SEQ_blocks_3_epochs_100.bin

start 2023-04-03 01:02:19.252800
Add encoder layer #0
Add encoder layer #1
Add encoder layer #2
Add decoder layer #0
Add decoder layer #1
Add decoder layer #2
SEQ !!!!


Model: "model"
_________________________________________________________________
 Layer (type)                Output Shape              Param #   
=================================================================
 input_1 (InputLayer)        [(None, 256, 256, 4)]     0         
                                                                 
 conv2d (Conv2D)             (None, 256, 256, 32)      1184      
                                                                 
 max_pooling2d (MaxPooling2D  (None, 128, 128, 32)     0         
 )                                                               
                                                                 
 conv2d_1 (Conv2D)           (None, 128, 128, 32)      9248      
                                                                 
 max_pooling2d_1 (MaxPooling  (None, 64, 64, 32)       0         
 2D)                                                             
                                                                 
 conv2d_2 (Conv2D)           (None, 64, 64, 32)        9248      
                                                                 
 max_pooling2d_2 (MaxPooling  (None, 32, 32, 32)       0         
 2D)                                                             
                                                                 
 conv2d_3 (Conv2D)           (None, 32, 32, 32)        9248      
                                                                 
 up_sampling2d (UpSampling2D  (None, 64, 64, 32)       0         
 )                                                               
                                                                 
 conv2d_4 (Conv2D)           (None, 64, 64, 32)        9248      
                                                                 
 up_sampling2d_1 (UpSampling  (None, 128, 128, 32)     0         
 2D)                                                             
                                                                 
 conv2d_5 (Conv2D)           (None, 128, 128, 32)      9248      
                                                                 
 up_sampling2d_2 (UpSampling  (None, 256, 256, 32)     0         
 2D)                                                             
                                                                 
 conv2d_6 (Conv2D)           (None, 256, 256, 1)       33        
                                                                 
 reshape (Reshape)           (None, 256, 256)          0         
                                                                 
=================================================================
Total params: 47,457
Trainable params: 47,457
Non-trainable params: 0
_________________________________________________________________
None
Epoch 1/100
  1/100 [..............................] - ETA: 3:23 - loss: inf - my_r_square_metric: -2.7040 - mean_ab
…
